notebooks/data/trained_model/trained_model.pkl (torch_old, 45852 bytes, 2 tensors)

entity_embeddings.weight f4 [89, 100]
00000000: 4481 f63c 8355 1bbc 8da4 95bd 2185 5e3c
00000010: d58b 333e f026 f6bd 4b9d 04be 7f54 1a3e
00000020: 747c 7f3c 715e 03be d667 6f3d 090b 7dbd
00000030: d823 c93c d7b5 dabd 33cc e4bd bc4e e73d
00000040: b0d7 1ebe 51f3 753d 55c8 d23d 2325 633d
00000050: 022e 30bb 2c6d 1a3e 8ad9 3cbc 009b ab3d
00000060: 10a4 01be 40d5 d7bd ca2d e23d 106b c6bd
00000070: 7565 bebc 9860 0e3c 1ebe 123e cf22 c63d
00000080: ae7c 913d 5142 c0bc 852d 1d3e a56a 77bd
00000090: 756f 4dbd 83ab b23d 6c7c c9bd ed35 0b3e
000000a0: bf70 fb3d c149 db3d d4a9 cb3d 81b8 edbb
000000b0: 4b55 b8bd fd4d 6f3d beac cf3d 1fe5 bd3d
000000c0: 1ed5 d43d da60 a73d 7bef 553e 7309 98bd
000000d0: 5e25 193e b987 0dbe 2b8f b5bd 96e7 9cbc
000000e0: d1d3 27bd 4aa3 c1bd a2f5 e9bd a7ba 2dbe
000000f0: 96ad 0c3e 7c44 893d 16c5 133e 9dd6 90bd
00000100: a905 d7bd fca2 cfbd 4196 213e 1704 b93c
00000110: 17f4 c5bd 2ffe 863d f21d 6cbc 4ebe 17bd
00000120: 0632 4bbc c1e4 16be de93 eb3d 17bc 593d
00000130: 942a 893d 70ef 0a3e 9e40 823b 38cb b9bd
00000140: b776 083e 4f9a a33d fce6 1ebe c9d9 25bd
00000150: 747e bc3d 8dcf 6dbd 7882 8ebc 54ef 18be
00000160: 8d67 9abd bb4f 33be 8f1d f8ba bd5b d0bd
00000170: d90c 493b f4a5 debc 8e45 453e 69bf a2bd
00000180: 5adf 803d f927 e43d 94a8 ca3d b944 c03d
00000190: ce81 a7bc 2228 d83d 687a 4fbc de85 3f3d
000001a0: c515 313d 9467 1abe 80b9 6ebc cf50 913d
000001b0: 4731 973d 0a3a 9fbd 06bd 1ebe ad44 153e
000001c0: f63d eebc b81f 0fbd ee94 96bd e339 b6bd
000001d0: b939 d33d b5d8 803a 0f0e e03b 2019 bcbb
000001e0: 351a 3cbe ea93 12be 2f6d 303e 8564 e1bd
000001f0: 76c7 03be 370a 6cbd dcb6 943d 4694 423d
00000200: 01b7 d7bd 1151 c4bd a283 32be 4378 9abc
00000210: e84e 0ebc 35a5 05bd bec4 1dbe df15 f43d
00000220: 3ee6 fcbd 41d2 f33d 0e1c 383d eb96 00bd
00000230: 55ce 893d 5207 013d 7001 863d 50b4 c73d
00000240: 6728 7abd 90bc 9dbd 0d06 433d 1fce f4bd
00000250: e358 9ebd 7caf cebd 74fa 383e 1ae7 ee3d
00000260: 10e4 f93d 5f7a eebd 1b32 29be f257 e43d
00000270: 1809 3d3d 30f3 17be 4b44 fc3d 0d7b 2cbe
00000280: 4f95 53bd a896 6fbd 15fa 82bd efec a03d
00000290: 4818 e03c 7ab3 223e 6764 aebd 5d80 ea3d
000002a0: 8537 113c 22ad 10be bdaf 12be 91b5 033e
000002b0: a56e 6d3a dd7c 93bd fb8e 06be df61 45ba
000002c0: 8aa7 e03d f282 543d babf 6e3d d2c7 1c3e
000002d0: 6d32 563d b183 f23d 1592 60bd c56d e0bd
000002e0: cd59 093e 16e4 2b3d 478d 9dbc 79d5 44be
000002f0: a809 823d 7653 82bd 9746 033e 85ad 573e
00000300: aa0a afbd be52 abbd 112a a2bd e8ea 543d
00000310: c290 f13c d6c8 3c3b a591 ed3d 3014 88bd
00000320: b048 89bb 1e42 3f3d cc84 063e 8fff a8bd
00000330: 830f 2bbe f8c2 f73d c09c 26bb 42cf f1bd
00000340: 115e f53d 5827 063e 3f77 103d 1f0f e83d
00000350: 669d 82bd 1b45 6c3d c13e 7c3a 639f 1c3e
00000360: 2675 4d3d 92af ee3c 5927 e53d 369e b2bd
00000370: 586e 5f3d 5e28 9bbd 53d3 0dbe bddb 96bd
00000380: 2644 2ebd 4a13 36bc f479 f73d ac80 983d
00000390: d470 2abc 9cf3 b8bd f99c 173e 4a08 a13d
000003a0: b13c 78bd cf90 c83d 2ae1 16be 6622 0dbe
000003b0: 6a72 f6bd c7ff 97bc 90df 7d3d 425c 3ebd
000003c0: 4cc8 98bd c6d7 07be 9543 e7bd 5829 f63d
000003d0: 45fe d03d 8320 e8bc 1fd3 cebd 8a2d 0bbe
000003e0: 1a1d 953d 84e6 3a3d ca8a ef3d 03e1 033e
000003f0: 2c60 e93d 6c14 25be 9f1a b6bd 871f bbbd
0.030090936 -0.009480837 -0.07306776 0.013581545 0.1753381 -0.120191455 -0.12950628 0.15071295
0.015593637 -0.12828995 0.058448635 -0.061778102 0.024553224 -0.106792144 -0.111717604 0.11294314
-0.15511966 0.060046498 0.102921166 0.05545534 -0.0026882892 0.15080708 -0.011526475 0.08379173
-0.12660241 -0.10538721 0.1104389 -0.09688389 -0.023241738 0.008690022 0.14330336 0.09674608
0.07103859 -0.023469122 0.15349396 -0.06040444 -0.05015512 0.087241195 -0.09838185 0.1359479
0.12277364 0.10707427 0.099445015 -0.0072546606 -0.09000643 0.058423985 0.1014037 0.09272217
0.103922114 0.0817277 0.20892136 -0.07423677 0.1495566 -0.13821305 -0.08865198 -0.019153398
-0.04097349 -0.09454973 -0.11423804 -0.16965733 0.13738093 0.067025155 0.14430651 -0.07072184
-0.104991265 -0.10138509 0.15779974 0.022584958 -0.09665697 0.065914504 -0.014411436 -0.037046723
-0.012402063 -0.147357 0.11502813 0.053157892 0.06697574 0.135679 0.003974988 -0.09071964
0.13326536 0.079884164 -0.15517801 -0.0404909 0.092038065 -0.058059264 -0.017396197 -0.14935046
-0.07539282 -0.17510884 -0.0018929708 -0.10173748 0.0030677824 -0.027178742 0.19264814 -0.07946665
0.06292601 0.11140437 0.09895435 0.09388108 -0.020447638 0.1055453 -0.012663461 0.046758525
0.04323365 -0.15078574 -0.014570594 0.07095491 0.07382446 -0.07774742 -0.15501794 0.14576979
-0.02908228 -0.03494236 -0.07352625 -0.0889776 0.10313744 0.0009830209 0.0068376134 -0.0057403
-0.18369372 -0.14314237 0.1722915 -0.11005501 -0.12869057 -0.05762693 0.0726144 0.047504686
-0.10532952 -0.09585775 -0.17433026 -0.018856173 -0.008685805 -0.032628257 -0.15407082 0.11918234
-0.12348603 0.11905337 0.04494863 -0.031393927 0.06728808 0.03150112 0.06543243 0.09751189
-0.061073687 -0.07701981 0.047613192 -0.11953377 -0.077317975 -0.10092065 0.1806429 0.11665173
0.122017026 -0.11644434 -0.1652302 0.11149587 0.04615125 -0.14838862 0.12317713 -0.16843815
-0.051656064 -0.058493286 -0.063953556 0.078576915 0.027355328 0.15888777 -0.08515244 0.114502646
0.008863335 -0.14128545 -0.14324851 0.12862231 0.000905732 -0.0720155 -0.1314048 -0.00075295375
0.109694555 0.05188269 0.058288313 0.153106 0.052294184 0.118415244 -0.054826815 -0.10958437
0.13413163 0.041965567 -0.019232405 -0.19222058 0.06349498 -0.06363575 0.12819897 0.21062286
-0.08546956 -0.08365391 -0.0791818 0.051981837 0.029487971 0.002880623 0.11600045 -0.066444755
-0.004189573 0.046693914 0.13136595 -0.08251869 -0.16705136 0.12097734 -0.002542302 -0.118071094
0.11980832 0.13100946 0.035269972 0.11331009 -0.063776776 0.05768309 0.0009622388 0.15295176
0.05016055 0.029136453 0.111891456 -0.087215826 0.05454859 -0.07576059 -0.13850145 -0.073661305
-0.04254546 -0.011112997 0.120838076 0.07446417 -0.010402877 -0.0903084 0.14805974 0.07862909
-0.060604755 0.09793245 -0.14734331 -0.13782653 -0.120335415 -0.018554581 0.061980784 -0.046474703
-0.074600786 -0.13265905 -0.11292187 0.120196044 0.10204748 -0.028335815 -0.10098862 -0.1359159
0.07280941 0.045629993 0.11696394 0.12878804 0.113952965 -0.16121072 -0.08891796 -0.09136873

relation_embeddings.weight f4 [24, 100]
00000000: 87fb d33d 3aaa 3fbd 9142 083d 06a8 c7bd
00000010: 57c7 91bc e059 2dbc ae2a e7bd 4986 8dbc
00000020: 3469 43bb 2800 403d ef5b 8ebc 6e7e c53d
00000030: 4f8f a13c 37d6 b1bb 4eb1 733c c862 1b3e
00000040: 1e70 cd3d 4f6a 983d 1fbe 53bd 978f 0c3e
00000050: f4f3 54bd 6bdc 223d fe9c 6f3d 6488 25be
00000060: 566b 71bd c0b5 10be 27c2 293e 8611 83bb
00000070: a4fc 6ebd bc85 8e3d 1b9e 3dbe 9fe4 0bbe
00000080: 946d 10be 5916 4d3d bf90 d13d 32cb a53d
00000090: a8f4 10be e581 3bbe c996 2dbd 58a0 24be
000000a0: 564d ea3d f0b3 2cbd 9156 c7bd bdcd 8bbc
000000b0: 89d2 243e d7aa ebbc 500c b5bd 7d11 023e
000000c0: f7c6 21bd 6c7d cc3d 7a22 07be 5434 a9bd
000000d0: 1275 32be b1fb db3d 19a4 5d3d 8861 c73d
000000e0: f19e bcbd 1e66 723b 7335 033e a019 a33d
000000f0: 6ddc 01be ddf6 37be 1966 0d3e 3362 bd3d
00000100: 6ed8 7d3c 2d33 273e 0333 b93d 406e 67bd
00000110: 5ead 0c3e 7872 c93d d3fb 073e 4855 38bd
00000120: 1129 0ebe a02a 1ebd 2ae1 49bd 2578 0ebe
00000130: b50b ca3c 24f2 193c e08f c0bd 4dc4 3ebc
00000140: 1262 d73c ad8e 3cbd c552 f6bd 4374 f43d
00000150: 07f3 a3bd 2d07 cfbd df27 b53d 5f9f 85bd
00000160: afbd 0ebe ca27 28be 8946 f23c 6ffe e43c
00000170: 1109 26be fd15 9cbd e4e3 3dbe 6069 a9bd
00000180: a2f4 01be 589b e83d 89b1 a7bd 93e1 90bd
00000190: 5ec9 603d 5c71 f03d b023 023e ff00 6c3e
000001a0: c0f7 833d 3cd8 853d 5ea0 41be 5778 d73c
000001b0: 57da 303e 2574 7b3e 180c ea3d 3ba6 533c
000001c0: 9a75 1c3d f443 63bc 85bd 063e 3056 76be
000001d0: 4f68 0bbe f5d9 4b3e b620 0a3e 6f2a 293e
000001e0: 1de0 143e dfa4 7e3d acd0 533e f343 92be
000001f0: 64d0 773e 547d 45be 5301 1d3e 317d 5bbe
00000200: d939 3ebd 0d28 e53d 94d0 6b3d 378e 4c3e
00000210: 9e23 6fbe 55cc dc3d b815 a53d d265 1ebe
00000220: 1ff8 3f3e 4058 ad3d feaf 2dbe b806 6bbd
00000230: da97 52be 36da 893d d7e0 a3bd ac58 81bd
00000240: 5b89 053e 065d 44be e3b2 a33e 912f 9dbd
00000250: 49c7 853d 66a4 34be 77f5 efbc 0ddd b1bd
00000260: b5b8 c1bd 709e e2bd 442f 80be 5614 9bbd
00000270: 72cc 5abe a2d8 0ebe 3493 3fbe c581 cbbd
00000280: b953 3e3e 0a72 183e 5831 29be daea 83be
00000290: 2721 923e e36a 943d faab 5ebe 8312 793e
000002a0: 7ac5 81bd f211 813d 060c 433e d4b0 2e3e
000002b0: 4348 81be 5c64 55be 8238 debd ed96 4fbe
000002c0: 35f5 46be 4f69 91bd 80b0 67be e1f3 0abe
000002d0: 0572 5cbe d120 25be 536c e7bd f681 f1bd
000002e0: e67c 883d e5a2 d93d 1b5a 5b3d fa56 92be
000002f0: b6c0 6a3d 3b66 febd af96 f8bd 100c 09be
00000300: 6f40 843e 5792 17be 0a07 563e 591b c8bd
00000310: 5981 493e b437 2c3e d90c 3dbd c30d 6abe
00000320: f0d3 243e 8802 0c3e c7a5 203e 790b c93d
00000330: 5df1 003d b50f 2d3e 438a d83d dc0e 733d
00000340: 8307 12be 22ca 433e 1f08 fa3c 3ae8 8c3d
00000350: 1f11 1f3d 2c42 35bd d0ff b1bd 56f2 753b
00000360: e056 03be 7efc 03be f89b 72bd b805 e4bd
00000370: bf36 b2bd 702f c1bd 4116 2fbe 80d6 a3bc
00000380: 68d3 a8bd 9cc7 073e 6df4 123e e84e 523d
00000390: 05e5 303d 13ac 413d 3443 25be f250 ea3d
000003a0: d1ee 29be 6237 753e d521 cfbd eb50 5abe
000003b0: 47be 123d 2101 03be 3fe5 f2bd c29c 9dbd
000003c0: c7eb 943b cd04 1dbe 72c2 7a3d 77ef 35be
000003d0: 9416 4cbe 5106 8c3e e461 13be 55d7 c0bd
000003e0: f82f 27bd d792 083d 1ee5 7a3d 68c8 62be
000003f0: c6da 343e 58ef 8bbd 1fdd 50be 3a9f b5bc
0.103507094 -0.0467932 0.033266608 -0.09748845 -0.017795248 -0.01058051 -0.112874374 -0.017275946
-0.0029817345 0.04687515 -0.017377822 0.09643255 0.019721655 -0.0054271477 0.014873816 0.15174401
0.1003115 0.07442152 -0.051694985 0.1372665 -0.051990464 0.03976099 0.05849933 -0.1616531
-0.058940254 -0.14131832 0.1657797 -0.0039998917 -0.058346406 0.069591016 -0.18517344 -0.13661431
-0.141043 0.05007014 0.10232686 0.08095397 -0.14155829 -0.1831127 -0.042380128 -0.16076791
0.11440532 -0.04216379 -0.09733308 -0.017065877 0.16095938 -0.028767986 -0.08840239 0.12701984
-0.03949639 0.0998486 -0.13196746 -0.08261934 -0.17427471 0.10741366 0.054111574 0.097353995
-0.09210003 0.0036987136 0.12813358 0.07963872 -0.12681742 -0.17965265 0.13808478 0.09247246
0.015493495 0.16328116 0.09042933 -0.056501627 0.1373801 0.09836286 0.13279657 -0.045003206
-0.13882853 -0.03861487 -0.049287 -0.13913019 0.024663785 0.00939611 -0.09402442 -0.011643481
0.02629188 -0.046034504 -0.12027506 0.11936238 -0.08005338 -0.101087905 0.088454954 -0.06524538
-0.13939546 -0.16421428 0.02957465 0.027953355 -0.16214396 -0.076213814 -0.18543965 -0.08272052
-0.12690976 0.113577545 -0.08188159 -0.07074275 0.05487954 0.117403716 0.12708926 0.23047255
0.06443739 0.06535384 -0.18908831 0.0263025 0.1727079 0.24556024 0.11428088 0.01291805
0.03819809 -0.013871182 0.13158233 -0.24056315 -0.1361401 0.19907363 0.1348904 0.16520093
0.14538617 0.062168952 0.20685071 -0.28567466 0.24200588 -0.1928609 0.15332536 -0.21434475
-0.046441887 0.1118928 0.057571962 0.19976126 -0.2335343 0.10781161 0.08060783 -0.15468529
0.18746994 0.08464098 -0.16961667 -0.057379454 -0.2056574 0.067310736 -0.08001869 -0.06315741
0.13040678 -0.1917611 0.31972417 -0.07675088 0.06532151 -0.17640838 -0.029291851 -0.0868474
-0.09459058 -0.11065376 -0.2503606 -0.07572238 -0.21367052 -0.13949826 -0.18708497 -0.09936861
0.18586625 0.14887252 -0.1652273 -0.25765115 0.28540918 0.072469495 -0.21745291 0.24323468
-0.06336494 0.06302251 0.19047555 0.17059642 -0.25250444 -0.20839065 -0.10850622 -0.20272417
-0.19429477 -0.07100164 -0.22625923 -0.13569595 -0.2152787 -0.161258 -0.11299958 -0.11792366
0.066644475 0.10626773 0.05355273 -0.28581983 0.05731269 -0.12421843 -0.121381156 -0.13383508
0.2583041 -0.14801918 0.20901123 -0.09770841 0.19678248 0.16818124 -0.04615483 -0.22856812
0.16096473 0.1367284 0.15688239 0.09816641 0.031480182 0.16900523 0.10573246 0.059340343
-0.14260678 0.19120076 0.03052145 0.06880231 0.038834687 -0.04425256 -0.086913705 0.0037528477
-0.12826109 -0.12889287 -0.059230775 -0.11133903 -0.08701848 -0.09432876 -0.17098333 -0.019999743
-0.082434475 0.13259739 0.14351054 0.051344782 0.04318716 0.047283243 -0.16138917 0.1144122
-0.16595007 0.23946908 -0.10113875 -0.2131993 0.035825994 -0.127934 -0.118601315 -0.07695915
0.0045447084 -0.15333863 0.061220594 -0.1776713 -0.19930488 0.2734857 -0.14392811 -0.09416071
-0.04081723 0.033343162 0.06125366 -0.22146761 0.1766158 -0.068327606 -0.20396851 -0.022170652
