notebooks/hello_world/nations_transe/trained_model.pkl (torch_old, 533712 bytes, 2 tensors)

weight f4 [14, 400]
000000 a1 2f 91 be e4 79 54 3e 57 1c ee bd 7a b2 a5 bd
       -0.2835665 0.20749623 -0.11626499 -0.08090682
000010 97 03 6a be 52 58 4a be 42 19 77 be 6d c7 3d be
       -0.22852932 -0.19760254 -0.24130729 -0.18533106
000020 ae 63 8e bd 76 5e 0c bc ce 7c cf 3d 03 5c 5a 3e
       -0.06952606 -0.008567443 0.101312265 0.21324162
000030 d9 e3 34 3e d5 d7 d7 3d d6 42 bb 3e 08 55 01 be
       0.17665042 0.105392136 0.3657443 -0.12630093
000040 f4 eb a3 3d 95 d3 68 3d 07 e9 6c 3d f7 2f 41 3e
       0.08003989 0.056842405 0.05783942 0.18865953
000050 f8 56 16 3e 78 4e 8b 3e 9c b3 03 bd 0f ef a0 3e
       0.14681613 0.27208304 -0.03215371 0.31432387
000060 9e 8e 84 3e b4 69 95 3b bd d4 58 3e 86 d9 81 3e
       0.25890058 0.00455972 0.21174903 0.2536127
000070 28 6b 5b 3e a9 57 9e be d5 73 6a bd 1b e9 8a 3e
       0.21427596 -0.30926254 -0.057239372 0.2713097
000080 74 eb 86 bc a1 b5 9f 3e 90 36 82 3e 63 14 ad be
       -0.016469695 0.3119326 0.25432253 -0.33804616
000090 79 63 87 bc 7b 06 c9 ba fc bb 2a 3e 20 bb 3f bd
       -0.016526924 -0.0015337014 0.16673273 -0.046809316
0000a0 a0 c3 70 be d6 5d ac 3e 5f d2 86 3e da cc 0e be
       -0.23512125 0.3366534 0.26332375 -0.13945332
0000b0 ca 80 e1 3d 4d 4a 6d be 47 78 56 3e b8 29 a3 bc
       0.11010893 -0.23172875 0.2094432 -0.019917354
0000c0 f4 f7 79 be ed df 67 3e c3 3d b0 3e 37 a0 97 bc
       -0.24410993 0.22644015 0.3442212 -0.018509014
0000d0 f1 74 82 be 52 07 0c 3e 0f a8 6d 3d f4 20 81 3c
       -0.25479844 0.13674667 0.0580216 0.015762784
0000e0 5f ed 49 3e a2 91 bf 3c 64 d2 91 3d a0 70 cc bb
       0.19719456 0.023384873 0.07120207 -0.006239012
0000f0 86 7d 8c be 42 58 9b 3e 53 c7 4a 3d 82 07 62 be
       -0.27439517 0.30340773 0.049506497 -0.22073177
000100 60 eb 76 3e 89 fd 3b 3e ac eb 70 be fc a6 92 3e
       0.24113226 0.18358435 -0.23527402 0.28643024
000110 36 eb 18 3d d1 6a 17 3e c4 5d 78 3e e4 3f 18 3e
       0.03733369 0.14786841 0.24254519 0.14868122
000120 2f 3a db bd 33 0b 10 be 80 d9 85 be 6b c6 6c bc
       -0.10704457 -0.14066772 -0.26142502 -0.014451603
000130 eb 70 1d 3e ae d1 4d bd 52 72 81 be d2 34 f3 bd
       0.15375106 -0.050248794 -0.25282532 -0.11875309
000140 8e 5e f8 bd f8 59 98 3e 63 9d 8d 3d 8e 6d e7 bd
       -0.1212741 0.2975614 0.06914785 -0.11300193
000150 da 6c 7c 3e e7 a7 94 bd 27 9d d6 3e 31 0e 61 be
       0.24650899 -0.07258587 0.41916773 -0.2197807
000160 9d d6 5c be d6 a1 13 3d 85 34 3b bc 69 29 5d 3c
       -0.21566243 0.03604301 -0.011426096 0.0134986425
000170 ad 5f 44 3d e4 08 7e 3d e0 00 52 be 6b f2 30 3e
       0.047942806 0.062020198 -0.20508146 0.17279975
000180 8b de 0e 3e 76 96 9f 3e e9 a2 8c 3e ad 9b 16 3e
       0.13952081 0.3116948 0.2746804 0.14707823
000190 45 b9 f0 bc 34 9b b7 bd a1 15 e2 bd 1b ae 4c 3d
       -0.029385218 -0.089651495 -0.11039282 0.049970727
0001a0 fc 73 d8 bd 32 d0 17 3e 85 18 62 3e 2d b8 8b be
       -0.10568997 0.14825514 0.22079666 -0.27288952
0001b0 85 52 1e be a2 59 9c 3e 3c b0 77 3d 5e a6 a2 3d
       -0.15461166 0.30537134 0.060470805 0.07941888
0001c0 82 cc 16 be 5f fa 22 be 44 8b 82 bb d2 1f b6 3e
       -0.14726451 -0.15915821 -0.003983887 0.35571152
0001d0 32 f9 06 be 4f 88 a0 bd ac 40 63 be 12 e5 96 be
       -0.13180998 -0.07838499 -0.22192639 -0.29471642
0001e0 0f bf c5 3e 3a 0f 22 bd 91 33 91 bd e0 69 30 be
       0.3862233 -0.039565302 -0.07089914 -0.17227888
0001f0 9e 5f 89 3e 04 4a 3a be 26 4a 83 3e c8 f8 37 3e
       0.26830763 -0.18192297 0.25642508 0.17965996
000200 91 1e 1f 3e 94 4b 75 bd c6 4e 7a 3e 0a f9 c8 3e
       0.15539004 -0.05988653 0.24444112 0.39252502
000210 cc 68 2e be 0a e4 20 3d fc 7f 15 be fd 30 61 3e
       -0.17032164 0.039279975 -0.14599603 0.21991344
000220 08 70 89 be 3b e4 86 be f2 9c 26 be fa 93 13 3e
       -0.26843286 -0.26346 -0.16270807 0.14411917
000230 fb 71 b8 be 90 a4 90 be be 34 10 3e bb 11 cf bc
       -0.3602446 -0.2825055 0.1408262 -0.02527701
000240 8b f5 14 3d 2f 12 79 3e 10 1b 65 bc 69 54 9b 3e
       0.03636698 0.24323343 -0.013983503 0.30337837
000250 46 54 1e 3e 2b cc 4e 3e 71 ac 34 bd 91 81 60 3e
       0.15461835 0.20195071 -0.044109765 0.21924426
000260 12 d3 ac be b0 92 59 3c 7f e8 40 3e 7e c4 18 3c
       -0.33754784 0.013279602 0.1883869 0.009324191
000270 0e ba 59 be 47 9b a6 3e bb f2 83 3c 2e 17 d4 bd
       -0.2126238 0.32540342 0.016106954 -0.10355984
000280 43 b1 be 3e a6 11 a0 3e 7e fb dd be 7b fc b9 be
       0.37244615 0.31263465 -0.43355936 -0.3632544
000290 ca 78 5c bd 2a 7d 54 bd 6d 8b 84 be 82 01 66 be
       -0.05382613 -0.05187718 -0.25887623 -0.22461513
0002a0 f9 e5 b3 3e 68 7b 8d bc 92 a2 9e be 69 00 23 3e
       0.35136393 -0.017270759 -0.30983406 0.15918125
0002b0 66 92 a4 be 51 d4 b2 bd 50 1b 1e 3d 30 39 d0 bd
       -0.32142943 -0.087319024 0.038600266 -0.10167158
0002c0 18 e5 de bd 06 b6 11 3d 06 63 82 3d 2c ed 37 3e
       -0.1088354 0.03557398 0.063665435 0.17961568
0002d0 aa 38 e0 3d 95 92 94 bc 56 86 cd 3a c6 d2 8b 3e
       0.10948308 -0.018136302 0.0015680294 0.27309245
0002e0 6d f7 1b be 1a 86 a5 3d 7f fc 9b 3e a0 1f 7a be
       -0.15231104 0.080822185 0.30466077 -0.24426126
0002f0 25 8f 58 3d ab 2b ca 3e b2 4f 3f be f0 3b b0 3e
       0.05287089 0.3948644 -0.18682745 0.3442073
000300 ff 85 2b 3e fe b9 32 3d 8c 5d 7b 3e 28 c6 c4 3a
       0.16750334 0.043634407 0.24547404 0.0015012668
000310 11 75 7e 3e a4 a0 e5 3e f9 de 80 be 5e 76 73 3d
       0.24849345 0.44849122 -0.25170115 0.059439056
000320 5c 27 85 be eb e5 45 3e da ea 04 3e c6 56 15 be
       -0.2600659 0.19325988 0.12980214 -0.14583883
000330 fc 79 32 bd 1f c3 23 3e 8f ec 55 be 61 be 85 3a
       -0.043573365 0.15992402 -0.20891021 0.0010203832
000340 ba de 4b be a0 79 2d be 1b 41 93 3c 09 43 1a 3e
       -0.19909182 -0.16940928 0.01797538 0.15064634
000350 0e 73 bf be 64 64 9d 3d 49 34 13 3e a1 e7 04 3e
       -0.37392467 0.076851636 0.14375414 0.12978984
000360 02 0f 41 be 5e 2d 89 3e a9 61 95 3e 73 59 7f 3d
       -0.18853381 0.26792425 0.2917607 0.062341165
000370 54 e7 4e be cb 2b f2 3d 10 f6 36 3d a6 0a 8e be
       -0.20205432 0.11824759 0.044668257 -0.277425
000380 da 3b 09 3e b1 78 81 3d 86 b8 1d 3d fb 0b a1 3b
       0.13401738 0.06321848 0.038506053 0.0049147583
000390 1c 6a f1 3a 19 af 11 3e 22 b7 40 be fb 0f 2d 3e
       0.0018418464 0.1422695 -0.1881986 0.16900627
0003a0 bc 97 25 3e 3d a6 40 be f2 be b8 be d0 46 d6 bc
       0.16171163 -0.18813415 -0.3608318 -0.026156813
0003b0 8e b6 8e 3e 04 2a 01 bd c1 2e 41 be 24 eb 3b be
       0.27873653 -0.03153421 -0.18865491 -0.18351418
0003c0 e6 1f b5 be 7a 85 8c 3e c8 36 97 be 68 e8 ea bd
       -0.353759 0.27445585 -0.29533982 -0.11470109
0003d0 2a d6 f3 bd 1c 65 1d 3e cb e4 e4 39 b5 2d 86 3d
       -0.11906083 0.15370601 0.00043658013 0.06551687
0003e0 65 73 84 3e fb 40 8f 3e e2 6f b7 3e 9c 25 90 bd
       0.2586929 0.27979264 0.35827547 -0.070384234
0003f0 0e cf 2e 3e ce b5 33 be 54 65 b4 be de ed 0e be
       0.17071173 -0.17549822 -0.35233557 -0.13957927

weight f4 [55, 400]
000000 cb fb 28 be 7c 7d 7c 3f ad 35 c5 bc 02 ed 7f bf
       -0.16502301 0.98628974 -0.024073446 -0.9997102
000010 32 9a 3c be d3 9e 7b 3f 07 25 31 bf 16 d0 38 bf
       -0.18418196 0.9828922 -0.69197124 -0.72192514
000020 2d d2 7f bf 06 27 19 bd 80 eb 8b 3e 53 41 76 3f
       -0.9993008 -0.03739073 0.2732811 0.96193427
000030 79 74 71 bf 9e 1f aa be 91 87 4f 3f 3f e4 15 bf
       -0.9431835 -0.33227247 0.8106623 -0.585514
000040 63 42 4b bf 10 a2 1b 3f 5d 85 29 3f 6a d4 3f 3f
       -0.79398173 0.6079416 0.6621912 0.74933493
000050 29 c0 b7 be 09 f2 6e bf cb b1 60 bf fa 57 f5 be
       -0.35888794 -0.93338066 -0.8777129 -0.47918683
000060 f8 f9 7f bf a8 4c 5e bc f8 8b 77 bf 44 7c 82 3e
       -0.999908 -0.013568081 -0.9669795 0.25485432
000070 3c 98 45 3f c4 c3 22 bf 1a 08 09 bf 9b 3c 58 3f
       0.77185416 -0.63579965 -0.53527987 0.84467477
000080 59 6c d7 be c6 3c 68 bf 5e fa 7f bf 47 d0 56 bc
       -0.4207485 -0.9071773 -0.99991405 -0.013111181
000090 3e 58 72 3f 47 fc a4 be 29 98 e8 bd f9 57 7e 3f
       0.94665897 -0.32223722 -0.11357147 0.99352986
0000a0 10 30 8e be 22 ee 75 bf 0c 79 ba be eb 6a 6e bf
       -0.27771044 -0.96066487 -0.36420476 -0.93131894
0000b0 9d 6e d2 be ee 60 69 3f 21 c6 7d 3f 05 bf 06 be
       -0.41100016 0.9116353 0.99130446 -0.13158806
0000c0 c6 71 7e bf d1 6d e1 bd 42 ac 21 3f 2f 7d 46 bf
       -0.99392354 -0.11007274 0.6315347 -0.77534765
0000d0 2b 6b 2b 3f c9 22 3e 3f 20 c4 7e bf 93 d5 c8 3d
       0.669604 0.7427183 -0.99518013 0.09806361
0000e0 fa 52 56 be 77 54 7a bf 64 e5 f3 be 92 16 61 3f
       -0.2093009 -0.97785133 -0.4763595 0.87925065
0000f0 9e 52 78 bf 5f e5 78 be 4c a3 dc be a0 02 67 3f
       -0.97001064 -0.24306248 -0.43093336 0.9023838
000100 9c f4 5a bf eb a4 04 bf 0d 46 71 3f 48 26 ab be
       -0.85529494 -0.51814145 0.94247514 -0.33427644
000110 a1 c2 14 bf 8d 57 50 3f 8f e4 fa be 48 28 5f bf
       -0.5810948 0.8138359 -0.490025 -0.8717084
000120 88 ac 7e 3f a5 2e d0 bd c6 99 23 3f 30 e7 44 3f
       0.9948201 -0.10165147 0.63906515 0.76915264
000130 2b e9 9c be 81 ae 73 3f 70 73 47 be d6 18 7b 3f
       -0.30646643 0.95188147 -0.1947763 0.9808477
000140 ec 36 7d 3e b9 0c 78 3f 4b fb 7f bf 74 5d 44 3c
       0.24727982 0.96894413 -0.9999282 0.011985172
000150 3e ea 4f 3f 40 5b 15 3f 1a 79 5c 3f 32 1b 02 bf
       0.812168 0.5834236 0.86122286 -0.50822747
000160 fb 57 66 3f 7c 68 df 3e 8f 52 40 bf 32 f6 28 3f
       0.89978 0.43634403 -0.75125974 0.66000664
000170 40 f9 16 3f 65 be 4e 3f b4 2a ff be 48 f1 5d 3f
       0.58974075 0.8075927 -0.49837267 0.8669629
000180 2e a4 4b 3e ff e2 7a 3f 01 e9 7d 3f 6e 93 02 be
       0.19886848 0.9800262 0.9918366 -0.12751552
000190 b2 de 70 bf c4 68 ad be 3e 47 33 3f 6a be 36 bf
       -0.94089806 -0.33868992 0.7003058 -0.713843
0001a0 b8 dd 71 bf 6e c5 a7 be de f5 65 3f 5b fb e0 be
       -0.9447894 -0.32767814 0.8982829 -0.4394177
0001b0 fa ff 7f bf 9a 96 5b ba 08 8e 01 3f 2c cc 5c 3f
       -0.99999964 -0.00083766284 0.5060735 0.8624904
0001c0 0b 88 5b 3f 5b b0 03 3f 8c 24 22 3f f9 1a 46 3f
       0.8575446 0.5144097 0.63337016 0.77384907
0001d0 e2 d4 3c bf ba da 2c bf eb e4 9b be 40 d8 73 3f
       -0.73762333 -0.6752125 -0.30448088 0.95251846
0001e0 1e 7b 18 bf 73 a2 4d 3f fd 03 7b bf 98 15 49 be
       -0.5956286 0.80326 -0.9805296 -0.19637144
0001f0 79 d6 54 bf ea 40 0e bf 3d 6a 7d bf 41 27 11 be
       -0.8313976 -0.555678 -0.9899023 -0.1417513
000200 c8 1c 7a 3f 7e 59 5a 3e 1c f0 0b bf 0d 5e 56 bf
       0.97700167 0.21323201 -0.5466325 -0.8373726
000210 60 27 45 bf 66 4c 23 bf d4 ec 2b 3f 94 ad 3d bf
       -0.77013206 -0.6378845 0.67158246 -0.74092984
000220 5e c6 78 3f 54 90 71 3e 80 03 1e 3f 09 6a 49 3f
       0.97177684 0.23590213 0.6172409 0.7867742
000230 5f 2a 47 bf b9 d6 20 bf 84 56 56 3f a6 fb 0b 3f
       -0.7779903 -0.6282764 0.8372576 0.5468086
000240 9d 81 65 bf 42 d4 e2 3e aa 48 f1 bc 92 e3 7f 3f
       -0.896509 0.44302565 -0.029453594 0.9995662
000250 d6 e8 69 3f 9d 0f d0 3e cc 17 f4 3e e9 08 61 bf
       0.91370904 0.40636912 0.47674406 -0.8790422
000260 72 dc af be d2 6c 70 3f aa c4 1d 3f 45 9b 49 bf
       -0.34347874 0.93916047 0.6162821 -0.7875255
000270 06 d1 21 3e 8f c8 7c 3f 73 37 8c be 85 36 76 3f
       0.15802392 0.9874353 -0.27386054 0.9617694
000280 89 48 84 be de 4e 77 bf f5 c6 2f 3f 29 1d 3a bf
       -0.2583659 -0.96604717 0.6866296 -0.72700745
000290 bc a5 05 bf 3a 58 5a 3f 29 0f 77 bf 63 21 86 be
       -0.52206016 0.85290873 -0.9650751 -0.26197347
0002a0 3f 68 29 3d ed c7 7f bf d4 7d 7a bf 24 48 53 be
       0.041359182 -0.9991444 -0.9784825 -0.20632988
0002b0 1a a7 62 be 7c a6 79 bf 45 1e 3e 3f 2e 70 2b 3f
       -0.22134057 -0.9751966 0.7426494 0.6696805
0002c0 62 12 2e bf bd b5 3b 3f cd 08 11 be 54 6b 7d bf
       -0.679968 0.73324186 -0.14163513 -0.98991895
0002d0 2e 41 d6 be ed 81 68 3f a6 9e fa be eb 3b 5f bf
       -0.41846603 0.9082325 -0.48949164 -0.872008
0002e0 57 c8 3d bf 49 cf 2b 3f ec 2d 0c bf a6 35 56 3f
       -0.7413382 0.6711317 -0.5475757 0.8367561
0002f0 4f 98 f9 be 59 85 5f 3f 67 fc 7f 3f f0 ad 2b bc
       -0.48749015 0.8731285 0.9999451 -0.010478482
000300 d2 75 61 bf 7a 84 f2 3e 46 10 1b 3f b1 b1 4b bf
       -0.88070405 0.47366697 0.60571706 -0.7956801
000310 d8 25 00 3e cb fc 7d bf d0 e5 71 3f ba 96 a7 be
       0.12514436 -0.99213856 0.9449129 -0.32732183
000320 fc 81 91 be ba 71 75 bf 8f e1 32 bf f5 21 37 bf
       -0.28419483 -0.9587666 -0.69875425 -0.7153619
000330 c3 4a 96 3e f3 b8 74 bf 31 fe 7f bf 4f 69 f3 bb
       0.29353914 -0.9559471 -0.9999724 -0.0074283252
000340 e6 dd 0f 3e fa 75 7d bf 06 c1 4a be 7f ee 7a 3f
       0.14049491 -0.9900814 -0.19800195 0.98020166
000350 dc 57 7f bf 24 9c 92 bd dc 9a 6c bf 82 7d c3 be
       -0.9974344 -0.07158688 -0.92423797 -0.38181692
000360 59 d8 f4 3e 97 d4 60 3f 04 cd d8 3e ac ea 67 bf
       0.4782131 0.87824386 0.42343915 -0.90592456
000370 89 e8 e9 bc 48 e5 7f bf 0c 6d 05 3f e2 7a 5a bf
       -0.028553264 -0.9995923 0.5211952 -0.85343754
000380 d9 cc 04 3f 67 dc 5a 3f c1 54 fb 3e b7 08 5f bf
       0.5187507 0.8549256 0.490881 -0.8712267
000390 9a 20 02 3f ea 75 5c bf 43 9b 6d bf b7 91 be be
       0.50830996 -0.8611742 -0.92815036 -0.37220547
0003a0 8f b0 58 bf 75 50 08 3f 9a 79 6d bf 44 39 bf 3e
       -0.8464441 0.5324777 -0.92763674 0.37348378
0003b0 51 49 35 bf 7d c0 34 3f 88 03 4a bf 15 3f 1d bf
       -0.70814997 0.70606214 -0.7891164 -0.6142438
0003c0 b8 b1 b5 3e 99 56 6f 3f 50 57 1b bf 89 7b 4b bf
       0.3548715 0.9349151 -0.60680103 -0.79485375
0003d0 a1 95 7f 3f f6 46 69 3d df 0a 61 3f 8e 10 f4 be
       0.9983769 0.05695244 0.8790721 -0.4766888
0003e0 25 82 87 be 05 df 76 bf 6f 3c 29 bf c4 14 40 3f
       -0.2646648 -0.9643405 -0.6610784 0.75031686
0003f0 21 5c 75 bf 65 13 92 be 28 ea 7e bf 7d 62 bc 3d
       -0.958437 -0.28530422 -0.99576044 0.09198473
